Model: "sequential"
_________________________________________________________________
 Layer (type)                Output Shape              Param #   
=================================================================
 conv2d (Conv2D)             (None, 9, 9, 48)          480       
                                                                 
 dropout (Dropout)           (None, 9, 9, 48)          0         
                                                                 
 conv2d_1 (Conv2D)           (None, 9, 9, 48)          20784     
                                                                 
 max_pooling2d (MaxPooling2  (None, 4, 4, 48)          0         
 D)                                                              
                                                                 
 dropout_1 (Dropout)         (None, 4, 4, 48)          0         
                                                                 
 flatten (Flatten)           (None, 768)               0         
                                                                 
 dense (Dense)               (None, 512)               393728    
                                                                 
 dropout_2 (Dropout)         (None, 512)               0         
                                                                 
 dense_1 (Dense)             (None, 81)                41553     
                                                                 
=================================================================
Total params: 456545 (1.74 MB)
Trainable params: 456545 (1.74 MB)
Non-trainable params: 0 (0.00 Byte)
_________________________________________________________________
Epoch 1/150
  1/583 [..............................] - ETA: 13:50 - loss: 4.5221 - accuracy: 
…
